models/trained_model_pytoch.pt (torch, 13599 bytes, 5 tensors)

weight f4 [25, 79]
0	0x3fcaa911	1.5832845
1	0x3fcb90a9	1.5903522
2	0x3fbc2857	1.4699811
3	0x3fcce169	1.600629
4	0x3fbc59f7	1.4714955
5	0x3fc26859	1.5188094
6	0x3fb89c64	1.4422727
7	0x3fc8217e	1.5635221
8	0x3fcc4f1c	1.5961642
9	0x3fb51c1c	1.4149203
10	0x3fcc26e3	1.5949367
11	0x3fc265cc	1.5187316
12	0x3fca47c8	1.5803156
13	0x3fc1bf31	1.5136472
14	0x3fc6877d	1.5510098
15	0x3fbd94ef	1.4811076
16	0x3fcab95c	1.5837817
17	0x3fc1d190	1.5142078
18	0x3fb8f470	1.4449596
19	0x3fc34f7e	1.5258634
20	0x3fb8f93f	1.4451064
21	0x3fbdeb5c	1.4837451
22	0x3fb9f061	1.4526483
23	0x3fc91f1e	1.5712621
24	0x3fb4491d	1.4084812
25	0x3fb8f9dc	1.4451251
26	0x3fbb8a41	1.4651567
27	0x3fb71382	1.4302828
28	0x3fc1097f	1.5081023
29	0x3fb1744b	1.3863615
30	0x3fcca27f	1.598709
31	0x3fb356e2	1.401089
32	0x3fcab5d9	1.5836746
33	0x3fc1e9e5	1.5149504
34	0x3fbaf0ed	1.4604775
35	0x3fc84f8e	1.5649278
36	0x3fc1fc83	1.5155185
37	0x3fcb5b44	1.5887227
38	0x3fc12011	1.5087911
39	0x3fbb0386	1.461045
40	0x3fc3a1b0	1.5283718
41	0x3fbbda09	1.4675914
42	0x3fc5ad78	1.5443563
43	0x3fcc51d1	1.5962468
44	0x3fc7e32f	1.5616206
45	0x3fb94a88	1.447587
46	0x3fc81296	1.5630672
47	0x3fc233de	1.5172079
48	0x3fc6e137	1.553748
49	0x3fb73a8a	1.431474
50	0x3fb1c97b	1.3889612
51	0x3fb9aac3	1.4505237
52	0x3fb49759	1.4108688
53	0x3fcb619c	1.5889163
54	0x3fc3c21f	1.5293616
55	0x3fc58d5e	1.5433767
56	0x3fc42757	1.5324506
57	0x3fbf5adc	1.4949603
58	0x3fcae094	1.5849786
59	0x3fb5649b	1.4171327
60	0x3fc04bbd	1.5023113
61	0x3fb5c4db	1.42007
62	0x3fc43200	1.5327759
63	0x3fbaa58a	1.4581769
64	0x3fc44038	1.5332098
65	0x3fbc99f8	1.4734488
66	0x3fcc5778	1.5964193
67	0x3fb77921	1.4333841
68	0x3fb71232	1.4302428
69	0x3fb7ccb8	1.435935
70	0x3fcc93df	1.5982627
71	0x3fc461b7	1.534232
72	0x3fcd8fa8	1.6059465
73	0x3fb3bce2	1.4042017
74	0x3fb1fedd	1.3905903
75	0x3fb4f1da	1.4136307
76	0x3fb68020	1.4257851
77	0x3fc6320a	1.5484021
78	0x3fc431c4	1.5327687
79	0x3dbf75be	0.093486294
80	0xbd6dfcc6	-0.05810239
81	0xbd9d1424	-0.07669857
82	0x3d748270	0.059694707
83	0xbd3a45a0	-0.045476556
84	0x3d8bd89e	0.06828426
85	0xbcdab6a0	-0.02669841
86	0x3d83cf46	0.06436019
87	0xbdb30704	-0.087415725
88	0xbd688f8f	-0.056777533
89	0x3d0c7f80	0.03430128
90	0x3cc2d930	0.023785204
91	0xbceafd04	-0.0286851
92	0x3d89585a	0.06706305
93	0x3d9ca3ea	0.076484516
94	0xbda717ce	-0.08158837
95	0xbd760693	-0.060064863
96	0x3dd2fc28	0.10302001
97	0xbd1b8044	-0.03796412
98	0xbd235fb8	-0.039886206
99	0xbddef383	-0.1088629
100	0xbd83f41a	-0.06443043
101	0x3ce63cb0	0.02810511
102	0xbc734f10	-0.014850393
103	0xbda741d8	-0.081668556
104	0x3b2cf480	0.002639085
105	0xbd9d64ef	-0.07685267
106	0xbdc37c61	-0.09545208
107	0xbd7dc3e2	-0.061954387
108	0xbdc9aa24	-0.09846905
109	0xbd92b746	-0.07163863
110	0x3de653f0	0.112464786
111	0x3cae14b0	0.021250099
112	0x3d0e02d8	0.03467068
113	0xbdd6e842	-0.104935184
114	0xbd97551f	-0.073892824
115	0xbd196456	-0.037449203
116	0x3c901f78	0.01759313
117	0xbdcabfed	-0.09899888
118	0xbd468fd2	-0.048477
119	0xbd89f1ab	-0.06735548
120	0x39a37800	0.0003117919
121	0xbd2b7a82	-0.04186488
122	0xbbff78d0	-0.0077963844
123	0xbd9c235a	-0.0762393
124	0xbd9e2866	-0.07722549
125	0xbd866d20	-0.06563783
126	0xbd1dbe34	-0.03851147
127	0xbdb5dd52	-0.08880104
128	0x3dc132d4	0.09433523
129	0xbcb6eb34	-0.02232895
130	0x3dc6403a	0.09680219
131	0x3d0f9698	0.035055727
132	0xbdc31e05	-0.0952721
133	0x3d9f7516	0.07786004
134	0xbcfd97e0	-0.030956209
135	0xbd30a684	-0.04312755
136	0xbdbf4360	-0.09339023
137	0xbde51290	-0.11185181
138	0x3d03d9a0	0.032189965
139	0xbcc95568	-0.024576858
140	0x3d336a04	0.043802276
141	0xbdbd187b	-0.09233185
142	0x3dab11ac	0.0835298
143	0xbda923a2	-0.082587495
144	0xbc9f25f0	-0.01942727
145	0x3cc08268	0.023499683
146	0x3d6de84c	0.058082864
147	0x3dba04d2	0.09082951
148	0x3dd1e6c2	0.10249092
149	0xbdb6b41b	-0.08921071
150	0x3ce7f468	0.028314784
151	0xbd4637b0	-0.04839295
152	0xbc4a00a0	-0.012329251
153	0xbdac7731	-0.084211715
154	0x3dd1e0d4	0.10247961
155	0xbda91d8b	-0.08257588
156	0x3d764b5c	0.060130462
157	0x3d21f4bc	0.039540038
158	0x3fba3375	1.4546953
159	0x3fad99ab	1.3562521
160	0x3fc34ba4	1.5257459
161	0x3fb8b491	1.4430104
162	0x3fb81b90	1.4383411
163	0x3fa97622	1.3239176
164	0x3fbb899b	1.4651369
165	0x3fb36883	1.401627
166	0x3faec271	1.3653089
167	0x3fc1f88d	1.5153977
168	0x3fb8c3a7	1.4434708
169	0x3fadcb75	1.3577715
170	0x3fae3c14	1.3612084
171	0x3fb53d67	1.4159364
172	0x3fbd6e7f	1.4799346
173	0x3fb1d11b	1.3891939
174	0x3fad4461	1.3536493
175	0x3fb05042	1.3774493
176	0x3fab7b23	1.3396953
177	0x3fba06e9	1.4533359
178	0x3fc0f460	1.5074577
179	0x3fa847b1	1.3146878
180	0x3fb941da	1.4473221
181	0x3fbd288d	1.4778
182	0x3fb813a3	1.4380993
183	0x3fb0c610	1.3810444
184	0x3fbd2eb8	1.4779882
185	0x3fbcf311	1.4761678
186	0x3fbb8447	1.4649743
187	0x3fb32ef7	1.3998708
188	0x3fb19bf0	1.3875713
189	0x3fb794da	1.4342301
190	0x3fb31955	1.3992106
191	0x3fb164a9	1.3858844
192	0x3fbf07f6	1.4924304
193	0x3fc251bd	1.5181195
194	0x3fb7848f	1.4337329
195	0x3fb1627a	1.3858178
196	0x3fb5cf57	1.42039
197	0x3fb45792	1.4089224
198	0x3fb9bba6	1.4510391
199	0x3fb98684	1.4494176
200	0x3fa82ca3	1.3138622
201	0x3faf96fe	1.3717954
202	0x3fc1a1c3	1.5127491
203	0x3fbbce6f	1.4672374
204	0x3fb42d32	1.4076293
205	0x3fac95f1	1.3483258
206	0x3fac7ebd	1.3476177
207	0x3fa84051	1.3144628
208	0x3fb1d636	1.3893497
209	0x3fbc247e	1.4698637
210	0x3fbe9df6	1.4891956
211	0x3fbc5803	1.4714359
212	0x3fa90040	1.3203201
213	0x3fad00b4	1.351584
214	0x3fb37a90	1.4021778
215	0x3fc3c610	1.5294819
216	0x3fb7c9e2	1.4358485
217	0x3fb22235	1.3916689
218	0x3fbc4b4e	1.4710481
219	0x3fb04f9a	1.3774292
220	0x3facef00	1.3510437
221	0x3fc05357	1.5025433
222	0x3fae5737	1.3620366
223	0x3fb2d520	1.397129
224	0x3fa940ab	1.322286
225	0x3fc1b4c1	1.5133287
226	0x3fc395c9	1.5280086
227	0x3fbcf249	1.476144
228	0x3faba5e0	1.3409996
229	0x3fa7776b	1.3083318
230	0x3fa770c3	1.3081287
231	0x3fc09032	1.5044005
232	0x3fbd4784	1.478745
233	0x3fc61372	1.5474684
234	0x3fc04f02	1.5024111
235	0x3fbea8cf	1.4895266
236	0x3fb5ae10	1.4193745
237	0xbdaf3bfa	-0.085563615
238	0xbdc56a6e	-0.096394405
239	0xbdd7856b	-0.10523494
240	0x3d3ca614	0.046056822
241	0xbd624177	-0.055238213
242	0xbcb97d28	-0.022642687
243	0xbd849b56	-0.064749405
244	0xbca7f34c	-0.020501755
245	0xbda22d1d	-0.07918761
246	0xbd968f09	-0.073515005
247	0x3d18dd40	0.037320375
248	0xbd08f574	-0.033437207
249	0x3d8e3f3a	0.06945653
250	0xbd13d71a	-0.03609381
251	0xbda906f0	-0.08253276
252	0xbca29e6c	-0.019850932
253	0xbd5f6399	-0.054538343
254	0xbd0cfd28	-0.034421116
255	0xbddb5b5f	-0.10710787

bias f4 [25]
0	0x3fc4c0b3	1.5371307
1	0xbdc20c6a	-0.09475024
2	0x3fb40273	1.4063247
3	0x3d2f4bbc	0.042796835
4	0x3dbbfcda	0.09179087
5	0x3fc4fe21	1.5390054
6	0xbd583af9	-0.052790616
7	0x3c8b139e	0.016977128
8	0x3fc8570d	1.5651566
9	0xbcb6971e	-0.022288855
10	0x3fbc725e	1.4722402
11	0xbe1f64b1	-0.15565754
12	0x3fbdf087	1.4839028
13	0x3fbca22c	1.4736991
14	0x3fbaf8a2	1.4607127
15	0xbd9479c6	-0.07249789
16	0x3fc3fad0	1.5310917
17	0x3c71740e	0.014737142
18	0xbdd8662c	-0.10566363
19	0xbe2a1ea2	-0.16613248
20	0xbdf114d3	-0.1177155
21	0xbdea222a	-0.114322975
22	0xbc673175	-0.014110913
23	0xbe176897	-0.14785992
24	0xbd90a852	-0.070633546

weight f4 [25, 25]
0	0xbe145b32	-0.14487913
1	0xbdf89977	-0.12138646
2	0xbbb27cc3	-0.0054470017
3	0xbdaa9f03	-0.0833111
4	0xbc298420	-0.010346442
5	0xbe625b19	-0.22105063
6	0xbdb21e17	-0.086971454
7	0xbd018d2b	-0.03162877
8	0xbdd51e51	-0.10406173
9	0xbe0ac2dd	-0.13550897
10	0xbccce620	-0.025012076
11	0xbdf145cc	-0.11780891
12	0xbe4efa03	-0.2021256
13	0xbe647740	-0.22311115
14	0xbe12bec9	-0.14330591
15	0xbe80296b	-0.250316
16	0x3d84e712	0.06489386
17	0xbe1ee7ee	-0.15518162
18	0xbe125803	-0.14291386
19	0xbd2f91b6	-0.04286357
20	0xbc025574	-0.007954944
21	0xbda34fe9	-0.07974226
22	0x3d988a23	0.074482225
23	0xbe44d67d	-0.19222446
24	0x3c3e94b0	0.01163213
25	0x3fb248a6	1.392842
26	0xbe269950	-0.16269422
27	0x3fa93b91	1.3221303
28	0x3d5079d4	0.050897434
29	0x3d1c8060	0.038208365
30	0x3fbee787	1.4914407
31	0x3e467dd8	0.19383943
32	0xbd4c622c	-0.04989831
33	0x3fa76d31	1.3080198
34	0x3c74780a	0.014921198
35	0x3f99e695	1.2023493
36	0x3bc5e219	0.006038916
37	0x3f9d57c3	1.2292408
38	0x3fb61396	1.4224727
39	0x3fc4eea6	1.538533
40	0x3d9b44e5	0.075815
41	0x3fa035f6	1.2516468
42	0xbe1b18c0	-0.1514616
43	0xbc9604c0	-0.018312812
44	0x3df214a3	0.118203424
45	0x3b9fdb00	0.0048784018
46	0x3dc5580c	0.09635934
47	0x3e7de33a	0.24793711
48	0x3e1c9ac6	0.15293416
49	0x3dbfbe1a	0.09362431
50	0x3fbb265c	1.4621081
51	0x3dc1c2c6	0.09460978
52	0x3fc7c138	1.5605841
53	0xbe385748	-0.18002045
54	0xbdf1f453	-0.11814179
55	0x3fbfcfa1	1.4985238
56	0x3e143270	0.14472365
57	0x3e211da9	0.1573397
58	0x3fb09ae6	1.3797271
59	0xbe0cbb9d	-0.13743444
60	0x3fbdd368	1.4830141
61	0x3d38c77d	0.04511212
62	0x3fc6f738	1.5544195
63	0x3fb7832b	1.4336904
64	0x3fd4ca84	1.6624303
65	0x3d99f66e	0.07517706
66	0x3fd33102	1.6499331
67	0xbda3fb90	-0.08006966
68	0x3e0f6041	0.14001562
69	0x3daf5563	0.08561208
70	0xbd25dffa	-0.040496804
71	0x3e242850	0.16031003
72	0xbe08734f	-0.13325237
73	0x3e77fbff	0.24217223
74	0x3d9bf5fd	0.07615278
75	0xbd702e09	-0.058637653
76	0x3dbd6af2	0.09248914
77	0xbd8ae5ee	-0.06782137
78	0x3daf9362	0.08573033
79	0x3e024bf1	0.12724282
80	0xbe64317b	-0.222845
81	0x3d8d325e	0.068943724
82	0xbdb84f35	-0.089994825
83	0xbe064bd8	-0.1311487
84	0xbca831d8	-0.02053158
85	0x3db54a89	0.08852107
86	0xbe2e15f1	-0.17000557
87	0xbe5fa313	-0.21839552
88	0x3d059952	0.03261692
89	0xbe32826d	-0.17432566
90	0x3b4e5d15	0.0031488587
91	0xbde1ea8a	-0.11031063
92	0xbb98b3ad	-0.004660091
93	0x3dbd9ecd	0.092588045
94	0xbe2581a8	-0.16162741
95	0xbe20aa3b	-0.15689938
96	0x3d19a63a	0.03751204
97	0xbd48f92a	-0.049065746
98	0xbdaf3540	-0.085550785
99	0xbe716163	-0.23572306
100	0x3b1841f1	0.0023232664
101	0xbbf830c0	-0.007574171
102	0xbe1d1f7e	-0.15344045
103	0xbda822fd	-0.082097985
104	0xbd21a8d4	-0.039467648
105	0xbd587133	-0.05284233
106	0xbd934db3	-0.07192554
107	0x3de3510d	0.110994436
108	0xbe30ce91	-0.17266299
109	0xbdb74966	-0.089495465
110	0xbd241fc0	-0.04006934
111	0xbd924a28	-0.071430504
112	0xbe4af697	-0.19820629
113	0xbda05ca3	-0.07830169
114	0xbba9fa93	-0.0051873415
115	0xbc3deff4	-0.011592854
116	0xbce50e3c	-0.027960889
117	0x3d8f6e3f	0.0700345
118	0xbb63cb51	-0.0034758637
119	0x3c04490b	0.008074055
120	0x3b9929c6	0.0046741692
121	0xbd24b598	-0.040212244
122	0x3dd8ebaa	0.10591824
123	0x3ddc17a1	0.10746694
124	0x3c36b6e4	0.011152003
125	0xbd9a69ef	-0.075397365
126	0x3e379f59	0.1793188
127	0xbe657e26	-0.22411403
128	0x3e167bd7	0.14695679
129	0x3dd9043e	0.10596512
130	0x3d6c123b	0.057634573
131	0xbd9ae03c	-0.075623006
132	0xbe564a7d	-0.20926853
133	0x3d908ab2	0.07057704
134	0xbe17d411	-0.1482699
135	0xbcd60b05	-0.026128301
136	0x3d554f99	0.052077863
137	0xbe865ef7	-0.26244327
138	0xbd8b8d95	-0.06814114
139	0xbe0c860f	-0.13723014
140	0x3da62967	0.081133656
141	0xbe44d28f	-0.19220947
142	0x3d7c51dc	0.061601505
143	0x3d847338	0.06467289
144	0x3d4dc9d1	0.050241295
145	0x3e07409c	0.1320824
146	0xbcf65bb8	-0.030073032
147	0xbe7718ba	-0.24130526
148	0x3da5470c	0.08070192
149	0xbd2af60a	-0.041738547
150	0x3fc03c9e	1.5018499
151	0xbe43171d	-0.19051786
152	0x3fb8075d	1.4377247
153	0xbdc6ce80	-0.097073555
154	0x3e489559	0.19588222
155	0x3fd005c5	1.6251761
156	0x3e67b560	0.22627783
157	0x3e498b05	0.19681938
158	0x3faf952b	1.3717397
159	0xbdafe927	-0.08589392
160	0x3fb51d99	1.4149657
161	0xbba72d36	-0.005101825
162	0x3fd34464	1.6505246
163	0x3fc5f036	1.5463932
164	0x3fd51266	1.664624
165	0x3d617a15	0.055048067
166	0x3fa917bd	1.3210369
167	0xbd6dab40	-0.058024645
168	0x3e4d2c50	0.20036435
169	0x3e3dde43	0.18541817
170	0x3d7d99dc	0.06191431
171	0x3b40637e	0.0029356177
172	0xbdd3bba1	-0.10338522
173	0xbb8e85bb	-0.004349438
174	0x3e282f5e	0.16424319
175	0xbe103380	-0.14082146
176	0x3dc3ed72	0.095667735
177	0xbbbaf5b7	-0.005705561
178	0xbd9d527a	-0.07681747
179	0x3df97a7e	0.12181567
180	0xbdfd6fb9	-0.12374825
181	0xbd889894	-0.06669727
182	0xbe0b7f7e	-0.13622853
183	0xbe7fe0a0	-0.24988031
184	0xbce37d36	-0.027769666
185	0xbc2ce4f3	-0.010552633
186	0xbe24a17f	-0.16077231
187	0x3d7dfe84	0.062010303
188	0xbe7510a3	-0.23932128
189	0xbe81842a	-0.25296146
190	0xbe3bfcb3	-0.18358116
191	0xbe045d83	-0.12926297
192	0xbda7cd65	-0.08193473
193	0xbdca06dd	-0.0986459
194	0x3cffccdf	0.03122562
195	0xbe70ff99	-0.23535003
196	0xbcfb1f35	-0.03065453
197	0xbd67285f	-0.056434985
198	0xbbee72dc	-0.007276876
199	0x3e0e1a09	0.13877119
200	0x3fd0026d	1.625074
201	0xbde2cc23	-0.11074092
202	0x3fa9cdec	1.3265967
203	0xbd465440	-0.04842019
204	0xbdcd7767	-0.1003254
205	0x3fc80125	1.5625349
206	0x3d9677c7	0.073470645
207	0x3e622d10	0.22087502
208	0x3fc9ec3e	1.577522
209	0x3cc86946	0.02446426
210	0x3fc02697	1.5011777
211	0x3df2e3c2	0.118598476
212	0x3fbc6de0	1.4721031
213	0x3fd3560b	1.6510633
214	0x3fad0673	1.3517593
215	0x3e23db97	0.16001736
216	0x3fb01107	1.3755196
217	0xbdf14771	-0.117812045
218	0x3c9a70cc	0.018852614
219	0x3e23b665	0.15987547
220	0x3e4c8865	0.19973905
221	0x3de4e38b	0.11176213
222	0x3d41da12	0.04732711
223	0x3d97f488	0.074196875
224	0xbcacad21	-0.021078648
225	0xbd9fbd92	-0.077998295
226	0xbc626830	-0.013818786
227	0x3de192b3	0.11014309
228	0x3defb74e	0.117048845
229	0xbe23e2c8	-0.16004479
230	0x3a58e200	0.0008273423
231	0xbe3b7528	-0.1830641
232	0xbdbbd7c8	-0.091720164
233	0xbe6041a0	-0.21900034
234	0xbbfc962d	-0.007708332
235	0xbe4e929f	-0.20173119
236	0x3e0cb0c1	0.13739301
237	0x3dba5b21	0.09099413
238	0xbe0cf9d5	-0.13767178
239	0xbe7e4d1b	-0.24834101
240	0xbd55f34f	-0.05223399
241	0xbded51a3	-0.115878366
242	0x3aa7ad82	0.0012792798
243	0xbe457fd4	-0.19287044
244	0x3cb2bf77	0.021819813
245	0xbe30e558	-0.17274988
246	0xbe299371	-0.1656015
247	0xbe2879f5	-0.16452773
248	0x3d166ec6	0.036726736
249	0xbd849071	-0.064728625
250	0xbe81274b	-0.2522529
251	0xbde9ee47	-0.11422401
252	0xbe1c42a3	-0.15259795
253	0xbe3e04ff	-0.18556593
254	0x3cd1cac0	0.025609374
255	0x3d91f4be	0.07126759

bias f4 [25]
0	0x3da2e336	0.07953493
1	0x3f98a45f	1.1925162
2	0x3fb75ee4	1.4325833
3	0x3d3ca7cb	0.046058457
4	0xbea08f30	-0.31359243
5	0x3d20dc29	0.03927246
6	0x3fab285c	1.3371692
7	0x3d3232f4	0.043505624
8	0x3fc9d491	1.5767995
9	0xbe14c591	-0.1452849
10	0xbe163140	-0.14667225
11	0x3dc47185	0.09591965
12	0xbd1ae0d1	-0.037812058
13	0xbdd4a395	-0.10382763
14	0x3fbf8a2f	1.4964045
15	0xbe206d06	-0.15666589
16	0xbd8f3614	-0.069927365
17	0x3fbaed4e	1.460367
18	0x3fbac391	1.4590932
19	0xbe41f594	-0.18941337
20	0x3fb2cf89	1.3969585
21	0x3f947f05	1.1601263
22	0xbe4fb94e	-0.20285532
23	0x3d8c25a1	0.06843115
24	0xbe240ebd	-0.16021247

weight f4 [1, 25]
0	0xbbd2cd9b	-0.0064332015
1	0x3fb2ef41	1.3979264
2	0x3fc7b125	1.5600935
3	0xbd7bdb27	-0.061488297
4	0x3cc0afad	0.023521269
5	0xbe084a94	-0.133097
6	0x3fc642a3	1.5489086
7	0xbd8d3ac3	-0.068959735
8	0x3fc357d8	1.5261183
9	0x3c7affb7	0.015319756
10	0xbd90d934	-0.07072678
11	0xbb25a8e4	-0.0025277669
12	0xbdbfde75	-0.09368602
13	0xbcc47f2f	-0.023986427
14	0x3fc0fa4a	1.5076382
15	0xbde49ca4	-0.11162689
16	0xbdec3f34	-0.115354925
17	0x3fd3a09e	1.6533391
18	0x3fc2f88c	1.52321
19	0xbce8b6ed	-0.028407538
20	0x3fc0a60d	1.5050675
21	0x3fd09925	1.6296736
22	0xbda27832	-0.07933082
23	0xbd3c440e	-0.04596334
24	0xbd257b76	-0.040400945
